hw2/conv1.weights.npz (npy, 3328 bytes, 1 tensors)

array f4 [5, 5, 1, 32]
00000000: 32e2 0a3d 9555 1a3e 220b 053d 4d90 59bd
00000010: 8e72 ab3d 138e ebbc c472 d13d c338 513d
00000020: 9d8f afbb 9a0d 083d 7821 87bd 4d79 553d
00000030: 5e90 b93c eadd fd3c 0f7a 5abb cab8 c83a
00000040: d115 3b3e b552 a93d faa5 b0bd 17f9 0fbe
00000050: 5285 a3bd e59f 313e 0043 a43d fb62 03be
00000060: e307 cebd 58b9 46bd 081e 0dbe 078e b63c
00000070: c1be d3bd 4bd4 08be 3307 fc3d 6471 d1bb
00000080: 1cb9 babd 60db 65bd 5aad bc3d 4c15 6abd
00000090: 0851 db3c 2a97 863d 0416 de3d 7e9e 8fbc
000000a0: b833 2a3d bd45 143c 706e 28b7 b27f 00bd
000000b0: 411b abbd 9b92 89bc 5c16 b3ba cf31 99bd
000000c0: 79e5 05be 9e7b eebc 97c5 9cbd 9c2b ccbd
000000d0: 61a4 3a3e 7f51 083d 1c42 2bbe 3c20 7d3c
000000e0: 23df 40bd adfd 53bd c3fa 76bd f164 eb3d
000000f0: 6776 fbbd dde5 2e3e 455f 0cbd eb10 febd
00000100: bbc4 f83b 558f ecbc 6e58 273d 3d2e 1b3d
00000110: a4df 303e d924 3ebe 1df9 423d cccc 58bd
00000120: a6e1 e2bc 1a15 ad3d cb74 94bd 9cbe e1bd
00000130: 2d31 873c 28c6 3bbd 5c06 80bc afa9 ba3d
00000140: 6b5e cd3d 181b 223e e4a7 61bb 90e6 ee3d
00000150: 2ab1 b8bd 78b6 e93b f1a9 1f3d a6f9 04be
00000160: 6ab9 2abd cd9a 4e3d d94c da3c 7f30 223e
00000170: d27c 3f3c e851 a53d ed7e d13c dea0 d13d
00000180: c6aa 00bc 5ff3 323e 98bf 81bd bbc5 bebd
00000190: 9082 ea3d 978d d2bc 4575 d43c 447f 673d
000001a0: 85cc 36be 7f4b b23d 7bb0 f4bd 3573 92bd
000001b0: 8696 cabd 0cbd adbc 442e 3fbd 8be3 283a
000001c0: 91ee e73c 8782 c83d 992d 55bd fa9d c93d
000001d0: cb8c 683c 56cf 84bd 06a3 013c 1ccd 83bb
000001e0: db61 f4bc eb2c 84bd d1b3 51bd 55b2 cabc
000001f0: 5286 0abc 6072 32be 9fec 8c3d 281f b7bd
00000200: 65d1 433d e162 2d3d 002d 49bc ad70 35be
00000210: 7b3f 0bbc ff83 313d e208 78bb 5438 19bd
00000220: f3b8 103e aa60 c63d 9b57 25be 23a7 263d
00000230: e2b9 49bc 9f3f a9bd 2090 393d 736d 483c
00000240: bfb6 14be 4418 14bd a673 a83b 0eb7 a1bc
00000250: 6dbd a13d d0bb 563c b9ab 213d 8033 ee3d
00000260: 79c7 543d 8cf3 1abe 85cf a33d 799c b8bd
00000270: 3e71 02be cb3a 7fb8 8e5c be3d c81b 01bd
00000280: 88bc f03d 3c73 e0bd 834e 173d bf33 5b3d
00000290: fd2b 1abd 6303 54bd b16a 683d 667c c6bd
000002a0: e78d 96bd 633c c9bc b887 a63d d2e4 08be
000002b0: a9e1 6c3d 3b46 fb3d 120d 90bd 25d1 f13d
000002c0: 8bef 2c3d d61c 0bbe 58b8 0f3e be55 d23c
000002d0: 9eb6 7ebd ad83 613c 34f3 5f3d 2a22 e7bd
000002e0: 5c26 d3bd 207f bfbd 4ac8 7fbc 8be8 003e
000002f0: feac 36bd fa0b 01be 3b35 3fbd b944 003e
00000300: b18b 8c3d d37c 96bd 2155 dcbd 720b f8bc
00000310: 170a fdbc 3630 cb3d f03b 083e 6ae1 293e
00000320: d1e8 53be f87a ffbd 10d9 013c 48dc 63bd
00000330: 347d 2c3d 0cfc 81bd 8c18 d6bd 5a21 083e
00000340: 414f 48bd da2c 533c 0ee2 12be 203a e5bd
00000350: db2e 8abc 8d77 083e a98d 333e 1273 4cbc
00000360: 5fbb a53d b0ee babd c611 d43b cdfa 0abe
00000370: a718 233e 8f8e 003e 6279 213e a61b 153d
00000380: e189 173d 8ee1 dabc edb6 f23d e933 313d
00000390: 44cc c23d cc70 023d fc60 b93d 7dcf 05bc
000003a0: 6d3d e13d 8ea6 923c 349b 70bd 399b 243e
000003b0: 1bf4 233d 25ac 013d 69fb 303d b0d0 473d
000003c0: f530 b9bd 5255 a33d b076 6c3b 5693 e53c
000003d0: 0504 04be a6e5 95bd 18be 333e ef38 cc3d
000003e0: fe1c 033e 6916 ea3d e74e fb3d c35e 5b3d
000003f0: 50b0 73bb ea58 a53c 2a49 6d3d b55f 113d
0.033907123 0.1507171 0.03248132 -0.05311613 0.08371459 -0.02875427 0.10226968 0.051079523
-0.005357696 0.033216096 -0.065981805 0.052117635 0.022651847 0.030989606 -0.0033336913 0.001531386
0.18270041 0.08267728 -0.086254075 -0.14059864 -0.07984413 0.17346151 0.08020592 -0.12830727
-0.10060098 -0.0485166 -0.13780987 0.02228452 -0.10339118 -0.13362233 0.12306061 -0.006391691
-0.09117338 -0.056117415 0.09212752 -0.057149217 0.026772037 0.06571801 0.10844043 -0.01753163
0.04155323 0.00904983 -1.0039294e-05 -0.03137178 -0.08354808 -0.01679354 -0.001366328 -0.07480203
-0.13075818 -0.02911168 -0.07654875 -0.09969255 0.18226768 0.033280846 -0.16724437 0.01544958
-0.0470878 -0.051755596 -0.06029774 0.114938624 -0.12278443 0.17079873 -0.034270544 -0.124055706
0.0075918115 -0.02887694 0.040855817 0.037885893 0.17272812 -0.18568744 0.047600854 -0.052929685
-0.027695488 0.084512904 -0.07248839 -0.11022684 0.016502941 -0.045843273 -0.015628032 0.09114396
0.100277744 0.15830648 -0.0034432346 0.1166507 -0.09018166 0.0071323477 0.038980428 -0.12985858
-0.04168073 0.0504406 0.026647972 0.15838812 0.011687474 0.08072263 0.025573218 0.10235761
-0.007853216 0.17475651 -0.06335372 -0.09315058 0.11450684 -0.02570228 0.025934825 0.056517854
-0.17851456 0.08705806 -0.119477235 -0.0715088 -0.09891991 -0.021208309 -0.04667498 0.0006442598
0.028312 0.09790521 -0.05204544 0.09844585 0.014193724 -0.06484859 0.007912403 -0.0040222537
-0.029831817 -0.0645388 -0.051196877 -0.024743238 -0.008454876 -0.17426443 0.068810694 -0.089414895
0.047807116 0.042330626 -0.012278795 -0.17718764 -0.008499022 0.043338772 -0.0037847091 -0.037407234
0.14133053 0.09686406 -0.161467 0.040686738 -0.012312384 -0.08264088 0.045303464 0.012233126
-0.14522837 -0.036155954 0.0051407395 -0.019740608 0.07897458 0.013106301 0.039470408 0.116309166
0.051948044 -0.15131968 0.079985656 -0.0901422 -0.12738511 -6.0851493e-05 0.09294997 -0.031520635
0.117547095 -0.10959479 0.03694011 0.053516146 -0.037639607 -0.051761042 0.056742374 -0.09691696
-0.073512845 -0.024564927 0.08131355 -0.13368538 0.057832394 0.12269255 -0.07033743 0.11807469
0.042220633 -0.13585219 0.14035165 0.02567565 -0.062185876 0.013764304 0.054675296 -0.11285813
-0.10310051 -0.09350419 -0.0156117175 0.12588708 -0.044598572 -0.12602225 -0.046681624 0.12526216
0.068625815 -0.07348027 -0.107584246 -0.030278895 -0.0308886 0.09921305 0.13304114 0.16589895
-0.20694281 -0.12474626 0.007925287 -0.05563 0.04211159 -0.06346902 -0.10453901 0.13293973
-0.048903707 0.012889111 -0.14344046 -0.11192727 -0.016868046 0.13326855 0.17534508 -0.012478607
0.08092379 -0.09127557 0.0064718453 -0.13572235 0.15927373 0.12554382 0.1576896 0.03640332
0.036996726 -0.026718881 0.118512966 0.043262396 0.09511617 0.031845853 0.090517014 -0.008167145
0.10998044 0.017901685 -0.058741763 0.16074838 0.04002772 0.03165831 0.043208513 0.048783004
-0.09042541 0.07975258 0.0036081485 0.028024357 -0.12892158 -0.073191926 0.17552984 0.09971797
0.12804028 0.11430056 0.12270909 0.05355717 -0.0037183948 0.020184 0.057931103 0.035491664
